pytorch-chatbot-master/data.pth (torch, 6186 bytes, 6 tensors)

l1.weight f4 [8, 71]
0	0xbd6ee195	-0.0583206
1	0x3f466af4	0.7750695
2	0x3f58b899	0.84656674
3	0x3e00b0e8	0.12567484
4	0x3f026165	0.5092986
5	0xbea5a7ba	-0.32354528
6	0x3f4dee35	0.804416
7	0xbe05adf2	-0.13054636
8	0x3df1840e	0.117927656
9	0xbec00af0	-0.37508345
10	0x3f15cac0	0.58512497
11	0xbd4aa3e7	-0.049472716
12	0xbec93ff9	-0.3930662
13	0x3efdbe08	0.49559045
14	0xbe51d0e5	-0.20489843
15	0xbefe1e81	-0.49632648
16	0x3f95ddb4	1.1708283
17	0xbec42a85	-0.3831369
18	0x3f026661	0.5093747
19	0xbe0be325	-0.13660868
20	0x3ea8cf07	0.3297045
21	0x3edf66b1	0.43633035
22	0x3efba442	0.49148756
23	0xbeb0f855	-0.34564462
24	0x3f18898a	0.5958487
25	0xbf01e23a	-0.5073582
26	0x3e9dbb12	0.30806786
27	0xbf1dc9c0	-0.6163597
28	0x3e53fdc2	0.2070227
29	0xbf11f373	-0.570121
30	0xbf1536a3	-0.58286494
31	0x3ea71390	0.32632113
32	0xbf0a3303	-0.5398409
33	0x3dc14ae2	0.09438111
34	0xbe5b9416	-0.21443209
35	0x3ddcb1cf	0.10776102
36	0x3f63f454	0.8904469
37	0x3e8c66e4	0.2742225
38	0x3ec8bb94	0.3920561
39	0x3ea21b72	0.31661564
40	0xbd0dd7c8	-0.034629613
41	0xbec25cae	-0.37961334
42	0x3ef8b41f	0.4857492
43	0xbe16e042	-0.14733985
44	0x3ea20192	0.31641823
45	0x3ef05b82	0.46944815
46	0xbe84e96f	-0.25959346
47	0x3f6a1486	0.91437566
48	0xbeb2803b	-0.34863457
49	0xbe9a314f	-0.30115744
50	0xbe58e4e1	-0.2118106
51	0x3e8dae7c	0.27672184
52	0x3f443de3	0.7665693
53	0x3f4fcbf4	0.8117058
54	0x3ef8b0cb	0.48572382
55	0x3f2ded54	0.6794026
56	0x3eb4108a	0.35168868
57	0x3ea26347	0.31716368
58	0x3e3e964a	0.18612018
59	0x3ed0d4db	0.40787396
60	0x3d7bcf45	0.061476965
61	0x3e581245	0.2110072
62	0xbdec1ff5	-0.11529533
63	0x3f0c1628	0.5472131
64	0xbe12a75b	-0.14321654
65	0x3e511206	0.20417032
66	0x3ed71ad6	0.42012662
67	0x3e940746	0.289118
68	0xbe9082d3	-0.2822481
69	0xbdd33a95	-0.10313908
70	0x3f09426d	0.5361698
71	0x3e44f221	0.1923299
72	0xbe301455	-0.17195256
73	0xbe2ff5e8	-0.1718365
74	0x3dd222b5	0.10260526
75	0x3e57119f	0.21002816
76	0xbeaf5022	-0.34240824
77	0xbe5b2549	-0.21400942
78	0x3eafdbe9	0.34347466
79	0x3cfa6d4a	0.030569691
80	0x3dca1da6	0.09868936
81	0xbf229e9c	-0.6352327
82	0x3d8d8286	0.06909661
83	0xbe2fc2cf	-0.17164157
84	0xbeb745f3	-0.35795555
85	0xbe3e3b8c	-0.18577403
86	0xbaacc577	-0.0013181408
87	0xbe985e33	-0.29759368
88	0x3f0243f4	0.5088494
89	0xbe0a23c2	-0.13490203
90	0x3ed464e0	0.41483212
91	0x3ee8cda7	0.454694
92	0xbf04a7dd	-0.5181864
93	0x3e489979	0.19589795
94	0x3ed5ce32	0.41758877
95	0xbf1d72ff	-0.61503595
96	0x3f25d86c	0.6478336
97	0x3e5b9306	0.21442804
98	0x3f10d1f3	0.5657036
99	0xbdc2198d	-0.0947753
100	0x3f050882	0.51966107
101	0x3efe8545	0.49711052
102	0x3ecf7932	0.40522152
103	0x3f0425f6	0.51620424
104	0xbdb3e425	-0.087837495
105	0x3e6e4058	0.23266733
106	0xbd8bba46	-0.06822638
107	0x3f1cb4a6	0.6121315
108	0x3e802e81	0.2503548
109	0xbea53cac	-0.3227285
110	0x3ede8514	0.43460906
111	0x3d625871	0.055260126
112	0xbe693b46	-0.22776517
113	0x3e88a147	0.26685545
114	0xbe3a4c36	-0.18193135
115	0x3e934ecc	0.28771055
116	0x3e7f0c78	0.249071
117	0xbe8fe842	-0.28106886
118	0xbe6bfd78	-0.2304591
119	0xbe2f8830	-0.17141795
120	0xbe108300	-0.14112473
121	0xbcd07cc5	-0.02545012
122	0xbeb0f069	-0.34558418
123	0x3f3d37b2	0.7391311
124	0xbe40c454	-0.18824893
125	0xbeb852fc	-0.36000812
126	0x3f2394ee	0.63899124
127	0x3dcdbef1	0.10046185
128	0x3ea42981	0.32062915
129	0xbe39d284	-0.18146712
130	0x3e817b3b	0.2528933
131	0xbe7595a7	-0.23982869
132	0xbdfdad3b	-0.12386557
133	0x3e69a59f	0.22817086
134	0x3f0b51a8	0.5442147
135	0x3e714249	0.23560442
136	0x3ec8e9f7	0.39241
137	0x3e607f8a	0.21923652
138	0x3e9fdecf	0.31224677
139	0xbdb47ab7	-0.088124685
140	0x3e2b0a44	0.16703135
141	0x3e78f2aa	0.24311319
142	0x3e575e3f	0.21032046
143	0xbc561690	-0.013066903
144	0x3adf7cdd	0.0017050762
145	0x3ef358c0	0.47528648
146	0x3d4be0a8	0.049774796
147	0x3f33ddfa	0.70260584
148	0xbdb0d8e5	-0.08635119
149	0xbdc15543	-0.094400905
150	0x3ecb9e15	0.39769045
151	0x3ea3e77c	0.32012546
152	0x3f19c9d7	0.6007361
153	0x3edec04a	0.4350608
154	0x3e86509c	0.26233375
155	0x3eca3d43	0.39499864
156	0x3e9e0236	0.30861062
157	0x3eb48e2b	0.35264716
158	0x3b801915	0.00390924
159	0xbe8a26fb	-0.26982865
160	0xbe835e81	-0.25658038
161	0x3e63d2ba	0.22248355
162	0xbe843902	-0.25824744
163	0x3f3553ec	0.7083118
164	0xbe95b0f5	-0.2923657
165	0xbe097391	-0.13422991
166	0x3f2f0838	0.68371916
167	0xbed1ade1	-0.40952972
168	0xbe588131	-0.21143033
169	0xbed52440	-0.4162922
170	0x3ea52ab0	0.3225913
171	0xbec57723	-0.38567457
172	0xbec88d74	-0.3917042
173	0xbf0519f8	-0.5199275
174	0xbeaee97f	-0.34162518
175	0x3e7c8736	0.24660954
176	0xbe30a1c8	-0.17249215
177	0x3ebec7f2	0.3726192
178	0xbef774bb	-0.48331246
179	0xbd43879d	-0.047736753
180	0x3eb65df2	0.3561855
181	0xbe13aa62	-0.14420465
182	0x3edf8c87	0.436619
183	0x3f09c79a	0.5382019
184	0xbe759775	-0.23983558
185	0x3f1813b9	0.59405094
186	0xbe368aa7	-0.17826329
187	0xbe27fbce	-0.1640465
188	0x3eb23abd	0.3481044
189	0xbda06113	-0.078310154
190	0x3f0f4fec	0.55981326
191	0x3ef513e1	0.4786673
192	0x3f0072fc	0.5017545
193	0x3dc79048	0.09744316
194	0xbee4f468	-0.44717717
195	0xbca50b03	-0.020146852
196	0x3ec19d45	0.378153
197	0xbee31d8c	-0.4435848
198	0xbdc96ddc	-0.09835407
199	0xbdc06350	-0.09393942
200	0x3ee974ea	0.4559701
201	0xbda7f72b	-0.082014404
202	0x3f57d7f8	0.8431392
203	0x3ebf3e51	0.3735223
204	0xbe1963d4	-0.14979488
205	0xbf00b4c2	-0.50275815
206	0xbea5cf62	-0.32384783
207	0xbc913737	-0.017726524
208	0xbe9cd36f	-0.3063006
209	0xbe52b482	-0.20576671
210	0x3f07ec10	0.5309458
211	0x3ed364fc	0.41287982
212	0xbe6e6069	-0.23278965
213	0x3e985293	0.297505
214	0xbd470939	-0.04859278
215	0xbd4705ac	-0.048589393
216	0xbe0c1094	-0.13678199
217	0x3cca200f	0.02467349
218	0x3f0b82f4	0.54496694
219	0xbe16c88b	-0.14724939
220	0x3ebc2706	0.36748523
221	0xbe9e33e8	-0.30898976
222	0x3efe4c3a	0.4966753
223	0xbe4edcdb	-0.20201437
224	0x3eb7b588	0.35880685
225	0xbc0343d7	-0.00801178
226	0x3c127556	0.008939108
227	0x3e80e7a0	0.25176716
228	0x3d112e93	0.035444807
229	0xbe7479f4	-0.23874646
230	0x3ed20da3	0.4102603
231	0x3dc5fa71	0.096669085
232	0xbe93a0e0	-0.28833675
233	0xbdeebdef	-0.11657321
234	0xbe840678	-0.25786185
235	0xbe783091	-0.24237277
236	0x3e90c3db	0.28274426
237	0xbe79691d	-0.24356504
238	0x3f0b218e	0.54348075
239	0xbdae5187	-0.08511644
240	0x3eb857db	0.36004528
241	0xbe9a2424	-0.30105698
242	0x3ed7e4ff	0.42166898
243	0x3f03a0ec	0.5141742
244	0x3e898ec6	0.2686674
245	0x3eed0932	0.46296078
246	0x3e9c180f	0.30487105
247	0x3e9ee33f	0.3103275
248	0xbe278b50	-0.16361737
249	0xbef1d82f	-0.47235247
250	0xbec3a10b	-0.38208804
251	0xbe9a16a5	-0.300954
252	0xbe5f5110	-0.21808267
253	0xbe0d5564	-0.13802105
254	0x3eef9323	0.46791944
255	0xbbc7ebe3	-0.006101118

l1.bias f4 [8]
0	0x3f716b8f	0.94304746
1	0x3f3317b6	0.69958055
2	0x3f1078b3	0.5643417
3	0x3ef1dd96	0.4723937
4	0x3f67d8f5	0.90565425
5	0x3f356ad8	0.70866156
6	0x3f1696cc	0.5882385
7	0x3f22967b	0.63510865

l2.weight f4 [8, 8]
0	0xbdc25042	-0.09487964
1	0x3f866003	1.049805
2	0xbf46e475	-0.7769235
3	0x3f5fdeca	0.87449324
4	0x3e72faeb	0.2372853
5	0x3f60329a	0.8757721
6	0x3f805851	1.0026952
7	0xbd9504c3	-0.07276299
8	0x3e139ff8	0.14416492
9	0xbeb3ac4f	-0.350924
10	0xbea3bce9	-0.31980065
11	0x3e3dbba7	0.18528615
12	0xbec49c8a	-0.3840068
13	0xbe84c9a2	-0.25935084
14	0xbea5a26e	-0.32350487
15	0x3e34d163	0.17658
16	0x3f71016f	0.9414281
17	0xbfa8a476	-1.317519
18	0x3f0e882e	0.55676544
19	0xbf26c0d9	-0.6513801
20	0xbf54dfc7	-0.8315396
21	0x3eb1352a	0.34610873
22	0xbf9068f8	-1.1282034
23	0x3f0c31dc	0.5476358
24	0xbf00e537	-0.50349754
25	0x3ea90e49	0.3301871
26	0x3ea74a5e	0.32673925
27	0x3fc2f123	1.5229839
28	0xbf3b7782	-0.7322923
29	0x3f393cd0	0.7235842
30	0x3f438503	0.76374835
31	0x3f83c1ea	1.0293553
32	0xbeaa0fec	-0.33215272
33	0xbe113c2b	-0.14183109
34	0x3fbcec4d	1.4759613
35	0xbcb94686	-0.022616636
36	0x3f821f99	1.0165893
37	0x3dc62aa5	0.096761025
38	0xbee99dc9	-0.45628193
39	0x3fce2213	1.6104149
40	0x3fb38ed2	1.402796
41	0xbee8a079	-0.4543493
42	0x3e25a46c	0.16176003
43	0xbf06dd85	-0.5268176
44	0xbf3e9b52	-0.7445575
45	0x3fa3cb10	1.2796345
46	0xbf7a88df	-0.978651
47	0x3d95ceaf	0.073148124
48	0x3ef3ca2b	0.4761518
49	0x3f924e62	1.143017
50	0xbf67fc1d	-0.9061907
51	0x3eefa007	0.4680178
52	0x3d5cef19	0.05393896
53	0x3eeb7d3e	0.4599399
54	0x3f7413fd	0.95343
55	0xbf3d9e70	-0.7406988
56	0x3f4e1e36	0.8051485
57	0x3f5ee33d	0.8706549
58	0xbe7bb683	-0.24581341
59	0xbec661f7	-0.38746616
60	0x3fa7de73	1.3114761
61	0xbf90b2f0	-1.1304607
62	0x3f658497	0.8965544
63	0xbed8c6d4	-0.42339194

l2.bias f4 [8]
0	0xbe7b707f	-0.24554633
1	0xbdde0102	-0.10840036
2	0x3edc9a5c	0.43086517
3	0x3ebe2ac7	0.37142012
4	0x3ee71734	0.4513489
5	0x3f02267c	0.5083997
6	0x3ecb4a17	0.39704964
7	0x3e22d85b	0.15902846

l3.weight f4 [7, 8]
0	0xbfbf0454	-1.4923196
1	0xbe475a03	-0.1946793
2	0x3f15e05d	0.58545476
3	0xc00a02d2	-2.1564221
4	0xbfc8a417	-1.5675076
5	0x3f2b8be3	0.67010325
6	0xbe75175e	-0.23934695
7	0xbf0d919e	-0.5530032
8	0x3ebf1478	0.37320304
9	0xbce8c7aa	-0.02841552
10	0xbf6b6869	-0.9195619
11	0xbf2526bd	-0.64512235
12	0xbfafc219	-1.3731109
13	0x3ee81363	0.4532729
14	0xbbf5b303	-0.0074981465
15	0xbf70d6f6	-0.94078004
16	0xbf992100	-1.1963196
17	0xbda1ca71	-0.07899941
18	0xbeba6698	-0.36406398
19	0xbdc77190	-0.09738457
20	0x3e0c2a4f	0.13688014
21	0x3f084fcd	0.53246766
22	0xbf90b86c	-1.1306281
23	0xbf8395d9	-1.0280105
24	0x3e847ce4	0.25876534
25	0x3e1d46bf	0.15359019
26	0xbfd3cf46	-1.654763
27	0x3f8c0b9e	1.0941045
28	0xbf7ad7b0	-0.97985363
29	0xbfa00256	-1.2500713
30	0x3e47bc8f	0.19505523
31	0xbedd31a4	-0.43201935
32	0x3d92b926	0.071642205
33	0xbec09ec1	-0.3762112
34	0xbfab5ea4	-1.3388257
35	0xbf9bab13	-1.2161583
36	0xbf835518	-1.0260344
37	0xbf6221cc	-0.8833282
38	0x3e9f7faa	0.31152087
39	0x3f8bc95b	1.0920824
40	0xbf95a2aa	-1.1690266
41	0xbe2ac1bc	-0.16675466
42	0xbfeb0bd3	-1.8362983
43	0x3f113b4a	0.5673109
44	0x3f329f1f	0.6977405
45	0xbfb12cd2	-1.3841803
46	0xbf1a4e91	-0.6027613
47	0xbfcec811	-1.6154805
48	0xbfd52e58	-1.6654768
49	0xbeabb8e5	-0.335395
50	0xbfaeca50	-1.3655491
51	0xbfb2f438	-1.398078
52	0x3f3ede5d	0.7455805
53	0xbf8a075f	-1.07835
54	0xbf3f4771	-0.74718386
55	0x3efc18ae	0.4923758

l3.bias f4 [7]
0	0xbe15cda7	-0.14629231
1	0xbebc2406	-0.36746234
2	0xbe21cea3	-0.15801482
3	0x3df3343d	0.11875198
4	0xbe88f2bf	-0.267477
5	0xbd2095b8	-0.039205283
6	0xbdfed657	-0.12443226
